main/Main/models/CONVNet001.pth (torch, 880418 bytes, 10 tensors)

conv1.weight f4 [6, 1, 5, 5]
000000 4c 8a 80 3e 6e b3 36 3d a2 ae c9 bc 1b 41 f7 bd
       0.25105512 0.04460471 -0.024619404 -0.12072965
000010 46 08 77 be 98 b6 d5 3d dd 4f 3d bd 2e 72 ee bd
       -0.2412425 0.104352176 -0.04621874 -0.11642872
000020 36 86 6b 3e 91 92 b6 bd e2 98 7e 3e c6 33 93 3e
       0.23000416 -0.08914674 0.24863008 0.28750437
000030 4b 65 df 3e 8e d7 da 3e 7c 24 d5 3e 85 98 05 3e
       0.43631968 0.4274258 0.41629398 0.13046463
000040 f4 b6 7a 3d 96 50 d4 3e b4 1f e0 3e 45 9a 6f 3e
       0.061209634 0.41467732 0.43774188 0.23398693
000050 c2 a7 83 3e 66 6d 19 3e 9c 13 80 3e 9a 57 de bd
       0.25713927 0.14983138 0.2501496 -0.108565524
000060 a8 1a 2d be a8 d0 d6 bd 5f 87 ca bd 16 79 a6 bd
       -0.169047 -0.10489017 -0.09889101 -0.08128564
000070 dc 96 4a bc 8d 44 22 3e 83 96 bf 3d 32 25 e5 bd
       -0.012365069 0.15846463 0.0935488 -0.11188735
000080 ae 31 a1 3c 67 ce 83 3e 5c d9 f7 3d 4e 16 0d 3e
       0.01967701 0.2574341 0.12102005 0.1377804
000090 77 1d 03 3e 22 f1 9f 3d e1 03 32 3e 81 5f 9b 3e
       0.12804209 0.07809664 0.17384292 0.303463
0000a0 58 46 5b 3e 7a 6a 55 3e 6d dc 9e b9 1c 88 26 3d
       0.21413553 0.20841399 -0.00030300338 0.040657148
0000b0 5a 0f e5 3d 2c 96 63 bd 62 f5 eb bc 71 d0 61 3e
       0.11184569 -0.055563137 -0.028803531 0.2205217
0000c0 94 24 b0 3e 90 87 a4 3e 8b 12 e4 bd d5 81 37 3e
       0.34402907 0.32134676 -0.11136349 0.1792062
0000d0 7f a1 05 3e 55 c1 70 3d 68 f5 5f be 84 fb 60 bd
       0.13049887 0.058778126 -0.21870959 -0.054927364
0000e0 ae 3b 85 bd 1c a5 f8 bd 4a 81 3b be 57 67 8b 3d
       -0.065055236 -0.12140867 -0.18311039 0.0680682
0000f0 87 56 18 3d cc b6 61 3e 8f 96 7a 3e ed 0e 75 3e
       0.037191894 0.22042388 0.24471496 0.23931475
000100 5b f4 8a 3e 58 b4 d9 3e d6 f7 fb 3e 81 ff b9 3e
       0.27139553 0.42520404 0.4921252 0.36327747
000110 0a 33 85 3e c3 8f f6 3c 32 56 a2 3e 8f 3b d0 3e
       0.26015502 0.030097848 0.31706387 0.4067044
000120 fa 4c e6 3e 8b c8 4d 3e 4d 34 9a 3e 9f 6b 0f bd
       0.44980603 0.20096032 0.30118027 -0.035014745
000130 dc ba f4 3d a7 32 23 be 1e d1 c8 3d b8 64 32 3e
       0.11949703 -0.15937291 0.09805511 0.17421234
000140 64 90 26 3d 6b 13 8d bd 98 eb 5c 3e 1e c4 7c bc
       0.040665045 -0.06888469 0.21574247 -0.015427617
000150 6c fc 92 3d c0 ee ad 3e 33 41 05 3e e0 5b 9f 3e
       0.07177052 0.33971214 0.13013153 0.31124783
000160 02 30 3b 3e f1 cf 22 3d 7d 2e 60 3e 4e b0 34 3e
       0.18280032 0.03974909 0.21892734 0.1764538
000170 c3 1c 9f 3e 7e 29 c3 bd 00 79 36 be 1b 94 90 3e
       0.3107663 -0.095293984 -0.17819595 0.28237996
000180 2c 54 a2 3e ea 60 ab bd f6 75 3c be e5 d4 7b be
       0.31704843 -0.08368094 -0.18404374 -0.24592932
000190 75 b2 5e 3e c3 31 40 bd 7d 9d 22 be fe 25 f7 3d
       0.21747763 -0.046922456 -0.1588039 0.12067793
0001a0 0c 56 19 3e 6b dc 49 3e 9b e5 58 3e 40 81 68 bd
       0.1497423 0.19712989 0.21181338 -0.056763887
0001b0 90 c9 11 3d 85 da 6a bc cf 86 84 3e 42 9f 5c 3d
       0.035592616 -0.014334326 0.258841 0.053862818
0001c0 a9 1c 0a 3e 42 86 c3 bd e1 6d fd bd b7 84 07 3e
       0.13487495 -0.09547092 -0.12374473 0.1323422
0001d0 97 04 15 3e d2 e0 d2 3d fb 43 13 3e 4f df 71 3e
       0.14552532 0.10296787 0.14381401 0.23620342
0001e0 c8 5b 42 be 01 7c e8 bb f2 1a cb 3d b9 20 6c 3e
       -0.18980324 -0.0070948605 0.09917249 0.23059358
0001f0 bd 5a 5f 3e 7a aa 17 bd 8a 6d f4 bd e7 6a d6 3d
       0.21811958 -0.037027813 -0.119349554 0.10469609
000200 98 30 97 3d e8 49 b1 3e 5b ca 1e be 39 25 03 be
       0.073823154 0.34626698 -0.1550688 -0.12807168
000210 87 18 97 3d 4f 8e 23 3e 60 c8 ca 3e 0e db 73 bd
       0.07377725 0.15972255 0.39606 -0.05953508
000220 d6 d5 a0 bd 20 12 8a 3d 8d 1d 23 3e 56 42 bd 3e
       -0.07853286 0.06741738 0.15929241 0.36964673
000230 2c 67 0b be 5d 86 6a 3c dc 13 98 3e f1 4a 9c 3e
       -0.13613576 0.014314261 0.29702652 0.30525926
000240 59 7e a2 3e 01 ea 25 3e 69 55 4a 3c 8d 1c 32 3d
       0.3173702 0.16202547 0.012349465 0.04348426
000250 eb 1c 68 3e 1e d9 09 3e
       0.22667281 0.1346173

conv1.bias f4 [6]
000000 44 83 a1 3d 85 27 62 3d 6f 91 36 3e 62 c0 85 3e
       0.07886365 0.05521347 0.17828916 0.2612334
000010 68 b6 6f bd 6f 5a 27 3d
       -0.058523566 0.04085773

conv2.weight f4 [16, 6, 5, 5]
000000 a2 6d 5c 3c 04 e2 93 bd 15 ce 7b bd 0f aa ef bd
       0.013453873 -0.072208434 -0.061475832 -0.11702358
000010 d4 61 cf bb cf 18 5f bd 14 cf a3 bd 78 07 37 3d
       -0.0063288007 -0.05446702 -0.079984814 0.044684857
000020 f7 5f 20 bb 56 dd 9c 3b 1c 94 ac 3d a6 70 00 3e
       -0.0024471262 0.0047871275 0.08426687 0.12542972
000030 7f 54 63 3e e8 8e 4f 3e ec 97 22 3e fc dd 20 3d
       0.22200201 0.20269358 0.15878266 0.0392742
000040 42 28 92 bc d6 24 6f 3d 2f af 24 bc 91 30 46 3c
       -0.017841462 0.05838474 -0.010051533 0.01209654
000050 2b 99 00 be 79 36 ee bc b9 28 ee 3b 35 45 d1 bc
       -0.12558429 -0.029078709 0.007268038 -0.025545696
000060 41 c2 0c bd 61 74 ce bd 3a 48 b6 3c 1c 0f 98 bd
       -0.034364942 -0.10080791 0.022251237 -0.07424757
000070 37 70 5d 3d 56 5d 05 bc 22 88 a4 3d db fd be 3d
       0.054062095 -0.008139929 0.08033778 0.09325763
000080 ae 29 44 bd 68 7e 6a 3d cf 4d ba 3c 62 1b 91 3b
       -0.04789131 0.057249457 0.02274218 0.004428313
000090 aa a4 51 3d 45 ff 92 3c ee 8f e5 3c 3e 4e 1a 3d
       0.051182427 0.017943988 0.028022733 0.037672274
0000a0 20 3a 38 bd e7 b6 8a 3c 51 4f 9d bd 95 0a 8d bd
       -0.044977307 0.016932918 -0.07681144 -0.06886784
0000b0 ff df a6 3c 65 e0 37 bc ca 8b 88 bc c8 2b ad bb
       0.020370482 -0.011222933 -0.01666822 -0.00528476
0000c0 de d7 26 b9 65 80 72 3d 0f 50 6f bd 3b d0 cb bd
       -0.0001591141 0.059204478 -0.05842596 -0.09951826
0000d0 61 1b ae bd a6 0c b5 bc 84 a6 c9 bd 79 7b 4a 3d
       -0.08501316 -0.022100758 -0.098462135 0.04943416
0000e0 f4 08 f5 3d 8a 93 05 3e 3e 9f f2 3d 9d 7e 28 3e
       0.11964598 0.13044563 0.11846779 0.16454549
0000f0 55 a6 0a 3e 51 b9 2d 3e 9a 4f 31 3e 80 74 0e 3e
       0.13540013 0.16965224 0.17315522 0.13911629
000100 42 35 33 3e 8d 48 5b bd 7f 85 e2 bd 7c 58 69 bd
       0.17500785 -0.053535987 -0.110606186 -0.05696915
000110 9c 16 fd bd 23 78 ae bc 54 75 ef bd e5 58 70 bd
       -0.12357828 -0.02129752 -0.116923004 -0.058678526
000120 85 e5 5e bc 9a 4b c4 bd a4 86 d6 bc 93 53 5a 3d
       -0.013604526 -0.09584732 -0.026187249 0.05330236
000130 bd cd a4 bd 78 59 93 bc dc 73 39 b8 3b 1d 06 be
       -0.08047054 -0.017986998 -4.421534e-05 -0.13097088
000140 20 94 a3 3c b1 ca 7f bb 39 b8 03 be 57 71 8e bd
       0.019968092 -0.0039030726 -0.12863244 -0.069552116
000150 46 f5 41 3c 21 6b 81 3d 95 4a 14 bd e7 b4 f8 3d
       0.011838263 0.06319261 -0.03620394 0.121438794
000160 92 bb b7 3d 2c ff 84 bb 76 29 c8 b9 37 38 76 3d
       0.08971323 -0.004058739 -0.00038177863 0.060112204
000170 77 a0 b6 bb e6 ed 62 3d 3c ec 35 bd c1 13 f7 bd
       -0.005573328 0.05540266 -0.044414744 -0.12064315
000180 7f c6 12 bc 03 11 f1 bd 0a b6 07 bd b8 4b 67 3d
       -0.008958458 -0.11770823 -0.03313259 0.056468695
000190 1e 59 cd 3c 79 33 3d 3d e6 0d 97 bd 72 3a 94 3c
       0.025066908 0.046191666 -0.07375698 0.018094275
0001a0 5d 2b 1c 3d e1 59 cf 3d 53 29 32 3d ad 98 28 3c
       0.038127292 0.10124565 0.04349644 0.010290307
0001b0 1e 74 6a bd 44 54 5f bd 21 fb 0a 3d a8 b4 f9 3c
       -0.057239644 -0.05452372 0.0339309 0.030481651
0001c0 b3 d6 97 3d 68 45 f3 3d ee 86 8e 3d f5 39 1a 3d
       0.074139975 0.118784726 0.069593295 0.03765293
0001d0 f6 08 26 bc c0 da a3 bc 52 d1 58 bd 00 fb 20 3a
       -0.010133972 -0.020001769 -0.052934 0.00061409175
0001e0 ed 55 7d 3d c4 13 b9 bd 63 fb c2 bd 41 5a bf bd
       0.061849523 -0.09036973 -0.095206045 -0.093433864
0001f0 e3 6c 10 bd bc ed a0 bc 8f cd 7d 3c 3a b7 14 bd
       -0.035260092 -0.01964461 0.0154909035 -0.03630755
000200 11 f4 5c bd 03 a9 ed bd d9 0a 27 3d f8 d7 40 bd
       -0.053943697 -0.11604502 0.04078183 -0.047080964
000210 d1 2e 17 bd 41 c1 1b 3c af 48 0e bc e2 d0 d2 3a
       -0.036909882 0.009506525 -0.008684321 0.001608398
000220 99 6c cf bc 2e 26 b0 3d e1 05 87 bd e9 56 96 3b
       -0.025320338 0.08601032 -0.06592918 0.004587997
000230 c8 b9 45 3d 34 05 fb bd 6d ee ea bd e7 60 d6 bd
       0.048272878 -0.12256852 -0.11471257 -0.104677014
000240 42 6d 02 bd a7 d4 0e bd 66 72 bd bd bd 63 90 3b
       -0.031842478 -0.03487077 -0.092503354 0.004406421
000250 78 5c 31 3d 28 73 1d bd f5 3d 91 3d 7c 17 4e 3d
       0.043301076 -0.0384399 0.070918955 0.050315365
000260 f7 c8 83 bc c8 dc c5 3c 4e 5b 9a bd c1 84 2e 3e
       -0.016087038 0.024153128 -0.07536946 0.17042829
000270 99 cb 37 3e d7 9d 0a 3e f2 23 d2 3d 6a 1d e6 3d
       0.1794876 0.13536774 0.10260762 0.11236079
000280 42 41 8f 3d 8b 74 26 bd 2a 27 cf 3c 6d f6 2c 3e
       0.06994869 -0.040638488 0.02528723 0.16890879
000290 13 b1 11 3e f7 84 5e bd 86 5a 02 3d d7 2d c5 3c
       0.14227705 -0.054326024 0.03182461 0.02406971
0002a0 ff 6a 90 3d 02 13 26 bc fc 68 97 3d 61 58 ae bb
       0.07051658 -0.010136368 0.07393071 -0.005320594
0002b0 e4 fd be 3d c1 0e a1 3d 42 91 4f 3d 78 c0 01 3d
       0.093257695 0.07864142 0.050675638 0.031677693
0002c0 79 18 aa bc b8 ab d5 3d 58 6a ae 3d 4a 83 af bb
       -0.020763623 0.104331434 0.08516377 -0.005356227
0002d0 22 cd 79 3d 53 ad c6 3d 4d 4c 18 3e 2c 76 29 bc
       0.060986646 0.09701028 0.14872856 -0.010343116
0002e0 3b 0f 81 bd a7 49 84 bd 96 6b d2 bc 3f 4a ce 3d
       -0.06301733 -0.064593606 -0.025686067 0.10072755
0002f0 1c cf d0 3d 2c b3 35 bd 82 53 78 bd 4d 0a 45 3d
       0.10195753 -0.044360325 -0.060626514 0.048105527
000300 cc df 9e 3d 8f 3c ab 3d 9c de 1e 3d c8 ef 9f 3d
       0.077575296 0.0836116 0.038786516 0.078094065
000310 c5 f7 e8 3d 29 4d cf 3d c6 6b ff 3b 78 95 42 bd
       0.11375383 0.10122139 0.00779483 -0.047505826
000320 53 3a ec 3d 04 38 23 3e 23 67 48 3e 6f 01 cc 3c
       0.11534562 0.15939337 0.19570594 0.024903027
000330 5b 90 5c bc a3 88 f0 3c 65 77 33 3e f5 5c f4 3d
       -0.013462151 0.029362028 0.17526014 0.11931793
000340 7e b9 9f 3d dc 10 8b 3d 49 be b2 bc d5 43 76 bd
       0.07799052 0.06790325 -0.02181925 -0.060123283
000350 84 d8 07 3d 71 67 19 3d 94 bf c4 3d b0 5c 79 3d
       0.03316547 0.037452165 0.09606853 0.06087941
000360 a8 14 6b bd 53 77 da 3d 58 d1 4a 3d f4 f7 34 3d
       -0.057392746 0.106672905 0.049516052 0.04418178
000370 f4 e8 af 3d 07 95 49 bc be 93 94 bc 42 1b bb 3d
       0.08589354 -0.012303597 -0.018136855 0.091360584
000380 6d ea 02 3e 63 71 5a bd b1 a3 25 bc 58 ae f0 3c
       0.12784739 -0.05333079 -0.010109828 0.029380009
000390 aa ae 5e 3d a3 0e 66 3d bd 3e 42 3d 1c 97 30 3d
       0.05436579 0.056166302 0.047423113 0.04311286
0003a0 0e b5 e7 3c 61 9b 91 3d 24 de da 3d d1 bc f2 bc
       0.028284576 0.07109714 0.10686901 -0.02963105
0003b0 94 61 57 3d 9a 3b b2 bd d4 07 c1 3d c2 6a c5 3d
       0.052583292 -0.08702774 0.09425321 0.09639503
0003c0 28 90 82 bd fe 32 00 3c c1 ea 7e bc c2 19 3c 3d
       -0.06375152 0.0078246575 -0.015558899 0.045923002
0003d0 c4 54 81 3b 5d 1c 3b 3d cb 62 eb bc 72 c4 85 3d
       0.0039468724 0.045681346 -0.028733632 0.065316096
0003e0 0a 06 bc bb 2c 67 a1 3d 38 ee 15 bd 54 d6 e5 3d
       -0.0057380246 0.078810066 -0.036604136 0.112225205
0003f0 62 b6 b0 3c 54 d6 65 3d cd 8f 1f 3c 82 c0 4c bd
       0.021571342 0.056112602 0.009738875 -0.049988277

conv2.bias f4 [16]
000000 f7 e5 ea bb 99 55 ed 3c 86 ff ad 3d 16 23 cc 3c
       -0.007168527 0.02897148 0.08496003 0.024919074
000010 6c 43 c7 bb 78 35 8e bd db 9d e7 3b 8e f3 0e 3d
       -0.0060810354 -0.06943792 0.0070683784 0.03490024
000020 87 77 5f bd 24 d0 c6 3c 49 52 59 bc 8e 5a 8f 3d
       -0.05455735 0.024269171 -0.013264247 0.06999694
000030 a4 f0 0a 3c 77 e9 85 bc f0 f1 11 3d b1 3c 10 3d
       0.008480225 -0.016346676 0.03563112 0.03521413

fc1.weight f4 [120, 256]
000000 88 a0 ff bc 90 1d fc bc d3 7d 42 bd de 6a d6 bc
       -0.031204477 -0.030775815 -0.047483277 -0.026174005
000010 e7 39 0d 3c c1 93 37 3d f4 0b 28 bd 46 aa 27 bc
       0.008619762 0.044818643 -0.041027024 -0.010233467
000020 ef af 4c 3c fa a0 53 bd ff b5 5d 3d 3a 8a 5e 3d
       0.012493118 -0.05166719 0.054128643 0.054331042
000030 48 19 10 bd f7 5a 8d bd 19 f9 37 bd fc d8 37 bd
       -0.03518036 -0.06902116 -0.044915292 -0.044884667
000040 28 a9 83 bc 24 31 4e bd d7 71 d6 bd 4b 37 47 bd
       -0.01607187 -0.050339833 -0.10470932 -0.048636716
000050 8b 65 1d 3d 48 67 46 bd d0 bc 4f 3d 68 10 38 bd
       0.038426917 -0.04843834 0.050717175 -0.04493752
000060 84 e5 4b 3d 0d 96 c5 bb 40 f3 83 3d 02 29 20 3d
       0.04977943 -0.0060298503 0.06442881 0.039101608
000070 9e 4c e5 3b 19 d7 43 3b 48 70 27 3d 0f 21 64 3c
       0.006997659 0.0029882847 0.040878564 0.013923897
000080 e3 8e 06 bc 9f 43 55 bb a8 f0 a8 bc bf 6f a0 3b
       -0.008212778 -0.0032541526 -0.020622566 0.0048961337
000090 9a df 7e 3d f3 80 fd 3c f5 2c 62 bd 2b 25 33 3d
       0.06222496 0.030945277 -0.055218656 0.043736618
0000a0 73 bb 85 3c 06 2b 80 bd 91 8e 2c bd 65 7e 05 bd
       0.016324734 -0.06258206 -0.04212815 -0.032591242
0000b0 cd 64 3b bc 9a 2e 11 3c b3 1d 1c bd 95 1c ef bb
       -0.011437607 0.008861208 -0.03811426 -0.0072971084
0000c0 11 83 04 3d 2f dd dc 3c d7 80 e6 3b 81 83 7d bd
       0.032351557 0.026960937 0.007034402 -0.06189299
0000d0 25 fa 97 3c b5 37 40 bd b9 62 69 3d 62 d6 d3 3b
       0.018551895 -0.046928126 0.056978915 0.0064647654
0000e0 7f f6 27 3d 06 77 e5 3c d7 ea 2c bd 3d d1 b2 bb
       0.04100656 0.028010856 -0.04221615 -0.005457072
0000f0 db 4f 0b bd be 1a 28 3d 64 a0 cd 3a 7d 7d fa ba
       -0.034011703 0.04104113 0.0015688059 -0.0019110885
000100 41 85 cc 3c d8 af af bc cc 53 82 bd b5 d3 7f bd
       0.024965884 -0.021446154 -0.06363639 -0.06245776
000110 d3 38 bd 3c e7 ab 69 3b f3 52 31 3d c2 5c ea 3c
       0.023098385 0.003565544 0.043291997 0.028608683
000120 e1 30 28 3d 19 6c 93 bd b9 d6 d9 3b 35 d6 32 bd
       0.04106224 -0.07198352 0.0066479114 -0.043661315
000130 00 c6 fc 3b 6a f0 12 3d 5b cd d7 bc 83 1a 88 3d
       0.007714033 0.035873808 -0.026343038 0.06645682
000140 1e 87 2f bc d2 b6 60 bd a4 17 9f bd f5 98 5d bc
       -0.010713367 -0.05486185 -0.07768181 -0.013525237
000150 29 4f 03 3d f1 c2 64 3c d4 01 f9 3b 7c 5d 04 3d
       0.032057915 0.013962493 0.007599095 0.032315716
000160 77 9f a0 bc 7f 84 5a 3c a8 39 17 bd 8c 49 fd bc
       -0.019607289 0.013337254 -0.03692022 -0.030918859
000170 bf 8c 51 bc c3 7f 3f bd 2c ff e3 3c 56 ff 86 3a
       -0.012789904 -0.046752702 0.027831636 0.0010299485
000180 50 b6 89 3d 0c f5 e0 3c 02 bf 85 bc 9f d6 1f 3d
       0.067242265 0.027460597 -0.016326431 0.039023038
000190 3c 56 44 3d d1 31 21 bd c6 24 b4 bc 1b 45 a6 bc
       0.047933802 -0.03935415 -0.021990191 -0.020296624
0001a0 eb f0 b9 3c 2f 65 0a bc 3c bd 4b bd 38 21 49 ba
       0.022697886 -0.008446976 -0.049741015 -0.00076724915
0001b0 d8 b5 08 3d 8f 7d 84 3d d3 8c 04 bc 37 78 79 3c
       0.033376545 0.06469261 -0.008090216 0.015226415
0001c0 b7 92 5e 3d 00 67 54 3d 9a 3a 18 3d 9d ee ac bc
       0.054339137 0.05185604 0.03716526 -0.021109873
0001d0 8e 3f 48 3d a9 82 8f bb 49 c7 b9 bc 11 3e 44 bd
       0.048888735 -0.0043795896 -0.022678034 -0.047910754
0001e0 da 06 1e 3c 4c e4 c6 bc d7 3e 74 bc 79 65 80 bd
       0.009645188 -0.024278782 -0.01490756 -0.062693544
0001f0 ed e0 29 bd 76 28 78 bd 5a 3a 55 3d 72 5a 37 bd
       -0.04147427 -0.06058546 0.0520576 -0.04476399
000200 e4 a7 15 3d f8 06 26 3b e9 55 77 bc 78 b3 b4 bb
       0.036537066 0.0025333744 -0.015096166 -0.0055145584
000210 53 30 bc 3c 98 3b fc bc 04 2d 79 bc e2 b8 53 bb
       0.022972262 -0.030790135 -0.0152084865 -0.0032306244
000220 6c e3 5b 3d 1a 2d 3a 3c 7e 94 91 3c 70 93 01 3d
       0.053683683 0.011363292 0.017771002 0.031634748
000230 6e d0 2d bd 4d 39 15 3d aa ac 80 3d 17 94 11 3c
       -0.042435102 0.0364316 0.06282933 0.008885405
000240 cf aa bb 3d 09 d6 78 3d 70 fa 79 3c 6f 6b 9d bc
       0.091634385 0.060750995 0.015257463 -0.019216267
000250 c8 3f 1b bd be ec 0c 3b 72 2f 39 bd 92 3f 13 bc
       -0.037902623 0.0021503414 -0.045211263 -0.008987324
000260 03 b5 72 3d ae c8 7d 3d e3 07 41 bd d7 58 2a bb
       0.059254657 0.06195896 -0.047126662 -0.0025992894
000270 1d 9a 7c 3d 6e c0 ec 3b 28 c8 06 bd 96 76 8f bc
       0.06167041 0.007225088 -0.032905728 -0.0175126
000280 f5 10 f3 3b ab 75 ef bb 27 3f a7 3d d0 b6 1a 3d
       0.007417793 -0.0073077283 0.08166342 0.037772
000290 c5 5b cb bc ca 3c 54 3d 9e 05 6d 3d 52 aa aa bc
       -0.024824033 0.051815785 0.057866685 -0.020833168
0002a0 66 6d 6f 3d 54 c7 5b bd 37 11 99 bd 7a e1 2f 3d
       0.05845394 -0.05365689 -0.074739866 0.04293964
0002b0 1d 0c 89 bd 53 84 27 3d 80 7d d4 bb 59 ed 96 3d
       -0.066917636 0.04089768 -0.0064846873 0.07369489
0002c0 1a 21 63 bc 73 75 dc bb d6 00 04 3c b2 ce 53 bd
       -0.0138628725 -0.006727868 0.00805684 -0.051710792
0002d0 e8 da 5d 3c 21 f6 e0 3c 74 5e b3 3c ab cc 27 bc
       0.013540961 0.027461113 0.021895625 -0.010241668
0002e0 98 b0 4e bd a6 0a 7d bd 71 b0 88 bb 02 ed 69 bc
       -0.05046138 -0.061777733 -0.004171424 -0.0142776985
0002f0 11 bd bd bc 97 6e 11 3c dd 64 d2 3c 8b 1f 14 3d
       -0.023161443 0.008876464 0.025682861 0.036162894
000300 1c fe 87 3c 80 5b 44 3d 06 04 03 bd ed d8 dc 3c
       0.016600661 0.047938824 -0.03198626 0.026958907
000310 1e 65 ac bc 6d f7 a1 39 7e 5e 01 3c 63 b8 90 bb
       -0.02104431 0.0003089266 0.007896064 -0.004416512
000320 22 e7 62 bd 6a 2a 7c 3c 09 ed 75 3d 2f 1a 87 3c
       -0.055396207 0.015390972 0.060040507 0.016491977
000330 6c 90 15 bd 29 34 06 bd b0 d4 f0 3b d7 28 28 3d
       -0.036514685 -0.032764588 0.007349573 0.041054573
000340 af ed 3a bc 3a e2 bd 3d 28 32 5e 3d be ac 0c bd
       -0.011409207 0.09271665 0.05424705 -0.034344427
000350 4f b3 a9 3d e8 d7 73 bd ad de 3e bd 7e 66 c0 bc
       0.082861535 -0.059532076 -0.04659908 -0.023486372
000360 07 57 e1 3b 31 72 bf 3c e1 8f a7 bc be 17 75 3c
       0.0068768295 0.02336988 -0.020454349 0.014959274
000370 5d d4 0c 3d d2 4c 3a bd 66 33 1f bd 8f 3a 90 3b
       0.034382213 -0.045483418 -0.038867377 0.004401512
000380 9e 59 70 bd 78 d8 d2 3c 89 f1 2b bd d2 af e0 bc
       -0.058679216 0.025737986 -0.041978393 -0.027427588
000390 45 6f 34 3d bc 09 a2 bc c4 9b 43 3d 7d 97 94 bc
       0.044051427 -0.019780032 0.04775597 -0.018138641
0003a0 1f 6d 92 3d d8 51 76 bd 43 0e 48 bd e9 b0 93 3d
       0.071497194 -0.060136646 -0.048841726 0.07211477
0003b0 46 4b 2d bd af c8 d9 3c 23 c9 1a bd 3d 2a f9 3c
       -0.042308114 0.026584951 -0.037789475 0.030415649
0003c0 93 df 76 bc 98 c3 a0 bc b8 a0 71 3d 85 35 03 bd
       -0.015067953 -0.019624516 0.058991164 -0.032033462
0003d0 88 2b 09 bc d0 94 38 bc 7b b4 06 3d 61 32 68 bd
       -0.008372195 -0.011265948 0.032886963 -0.05668867
0003e0 e4 20 ff bc 1e 7e 42 bc ee a7 0b 3d 6a e5 39 3d
       -0.031143613 -0.011870889 0.034095697 0.045384802
0003f0 65 70 6b bd 1d 9d ef bc 3b d4 08 bd 23 55 56 3d
       -0.057480235 -0.029249722 -0.033405524 0.052327286

fc1.bias f4 [120]
000000 8f d1 ab 3c b8 a9 ce 3c ff cf 70 bd 78 38 4d 3d
       0.020973949 0.025227413 -0.05879211 0.05010268
000010 ef 4f 7b bd 29 7c 6f 3c 64 ec c5 bb 75 14 73 3d
       -0.061355527 0.014617004 -0.006040143 0.05934568
000020 2a 40 40 bb a4 7d 0b bd 11 72 24 bd 12 78 29 3a
       -0.002933512 -0.034055367 -0.040147845 0.000646473
000030 48 cd 0f 3d 6e 35 0c bc eb 90 e5 bc b3 f4 7c bd
       0.03510788 -0.0085576605 -0.028023204 -0.0617568
000040 eb b8 42 bd 3c 20 ae bc 12 51 1e bd ef 9d 80 3c
       -0.047539633 -0.021255605 -0.038651533 0.015700309
000050 98 17 15 bc 45 34 91 3a e1 91 5a bc ae b7 e5 3b
       -0.0090998635 0.00110782 -0.013340444 0.0070104217
000060 4b 8f 3b bd 2a db 11 bd c2 01 1c 3d 77 7e 0d bc
       -0.04579095 -0.0356094 0.038087614 -0.008636109
000070 c8 2b 80 bb ec 34 15 bd 8e 90 7e bc f9 57 20 3d
       -0.003911469 -0.036427423 -0.015537394 0.039146397
000080 02 45 4e bd f9 5d 77 bd 3c 7d 67 bd 75 2e ff 3c
       -0.05035878 -0.060392354 -0.056515917 0.031150082
000090 74 14 a0 3c 52 42 83 ba 1e c5 61 3b 6d 79 99 3c
       0.019541003 -0.0010014272 0.0034449766 0.018734658
0000a0 71 3f 4d 3c b9 e2 96 bc cc 46 45 3d 0d 9b 21 bd
       0.012527333 -0.018418657 0.04816322 -0.03945451
0000b0 69 ad 37 3d f3 d5 8c 3d 77 a6 a0 3c 46 74 30 bc
       0.04484311 0.06876745 0.019610627 -0.010769909
0000c0 c5 2f c2 bb ec d3 00 bd af 1e 33 bd f7 29 6a bc
       -0.0059261047 -0.031452104 -0.043730434 -0.014292232
0000d0 a1 fd 44 bd cf 30 5c 3d 9b a5 42 3d ee 4d 90 3c
       -0.048093442 0.053757485 0.047521215 0.017615285
0000e0 b6 56 df bc 91 cb 19 3d 42 0c 16 3d 28 77 36 bd
       -0.027263027 0.03754765 0.036632784 -0.04454723
0000f0 20 87 a5 3c a5 63 82 3c 7b fb ce 3c a1 bb 89 3c
       0.020206034 0.015916655 0.0252664 0.016813101
000100 67 be ad bc 06 4d e1 3c a5 96 f3 3c 03 2d 7d bd
       -0.021208955 0.027502548 0.029734919 -0.061810505
000110 c5 91 07 3d 37 56 82 3d 86 63 11 3d 79 41 03 bd
       0.033098 0.063641004 0.035495304 -0.03204486
000120 68 83 cd bc 95 d4 51 3d 67 65 53 3d 38 26 4d bc
       -0.025087073 0.051228125 0.051610377 -0.012521319
000130 bf a3 84 bc ac d4 d8 3c d5 71 0f 3d a6 f5 dc 3c
       -0.016191361 0.026468597 0.035020668 0.026972603
000140 de ab 24 3d 6f 9c 46 bd f4 ba 55 bd a4 73 80 bc
       0.040202968 -0.04848903 -0.052180246 -0.015680142
000150 55 bf 01 bd da 60 03 bd c7 28 3d bd b2 f8 98 3c
       -0.03167661 -0.032074787 -0.046181466 0.018673275
000160 3a cf 1d 3c 4c 52 f6 3b 08 28 2a 3d c9 44 3d bc
       0.009631926 0.007517135 0.041542083 -0.011552044
000170 7d ee a1 3b d0 7e 46 bd 1b 21 7b bd 9a 9c c0 3c
       0.00494176 -0.04846078 -0.06131087 0.023512173
000180 3e 1c 66 bc d3 d9 10 bd a5 c4 81 bd a7 b4 e2 3b
       -0.014044819 -0.035363983 -0.06336335 0.006918508
000190 f0 14 f1 bc b2 36 47 3d 1a 37 42 bd 45 32 2a bd
       -0.02942893 0.048636146 -0.04741583 -0.041551847
0001a0 19 c6 3a 3d ed 87 00 3d 5b 86 89 3c 0e 62 5b 3d
       0.045599077 0.03137963 0.016787698 0.05356031
0001b0 f6 f8 bc 3c e1 92 a4 3c f3 74 26 3d b4 80 30 3d
       0.023067933 0.020089569 0.040638875 0.04309149
0001c0 4d 7b ac 3c 12 da 92 3c c3 75 33 bd 86 05 e4 ba
       0.021054888 0.01792625 -0.04381348 -0.0017396666
0001d0 7d 2a ec bc 01 09 79 bd 96 c9 f3 3c bf 88 31 bc
       -0.028828854 -0.060799602 0.02975921 -0.010835825

fc2.weight f4 [84, 120]
000000 a8 40 88 3d 4d dd 8a 3c 91 79 b0 bd a9 5a 86 ba
       0.06652957 0.016951228 -0.08616937 -0.0010250408
000010 f5 8f e2 bd 52 c9 c9 bd 93 77 fe 3b bd c5 a3 3d
       -0.11062614 -0.09852852 0.007765719 0.079967
000020 c8 ea 06 bd 5b 7d b3 3d 7f 9b 2b bd 1d 2a 57 bd
       -0.03293875 0.08764144 -0.04189634 -0.052530397
000030 48 1b e9 bd bc f3 bb 3c 80 3f 85 3d b1 8b 16 3d
       -0.113821566 0.02294337 0.06506252 0.036754314
000040 b2 58 6f 3c 6a 5c 35 bb 63 13 a7 3c 25 70 42 3d
       0.014608549 -0.0027673491 0.020394986 0.04747023
000050 15 9a 83 bd 67 57 01 bd fc 22 4d 3c 49 9f 76 3d
       -0.06425873 -0.031577494 0.012520548 0.0602105
000060 8d ae 2c 3d d8 d4 26 3d d2 10 fc bc 1a 2f 76 bd
       0.042158652 0.040730327 -0.03076974 -0.060103513
000070 e6 6c 21 3c 09 f7 8f 3d 7a 21 4b 3d 7c 9f 90 bd
       0.009852624 0.0702954 0.049592473 -0.07061669
000080 13 2b 6a 3d df e4 b7 bd 8a ec a3 bc 22 79 62 bd
       0.057169985 -0.089792006 -0.020010252 -0.055291303
000090 4e a1 58 3c 57 cd 66 3d 2a c5 84 3d 06 e6 88 bd
       0.013222052 0.05634817 0.064829186 -0.066844985
0000a0 be 1b b8 bc d7 47 ec bc 28 f0 4d bc 6b 49 84 3d
       -0.022474166 -0.02884285 -0.012569465 0.06459316
0000b0 30 ed c6 3a 0a 7c df 3d dc 3b 8c 3c 97 08 8a bc
       0.0015176889 0.109123304 0.017118387 -0.0168498
0000c0 5a 95 41 bd 8b 1c 8c bc d3 96 2c bc 4d da b0 3d
       -0.047261573 -0.017103454 -0.010534006 0.086353876
0000d0 36 76 ff bb ad 10 4f bd ab 19 b3 3d 85 01 80 3d
       -0.0077960743 -0.050553013 0.0874513 0.0625029
0000e0 f8 0e 96 bd 1f 2f af bd 74 aa ad 3d 94 e7 82 3c
       -0.07327074 -0.085539095 0.08479777 0.015979566
0000f0 2c ef 8c bd f8 71 e5 bc e2 37 2b bd 0e 83 98 bd
       -0.06881556 -0.028008446 -0.04180134 -0.07446872
000100 ab 15 a7 bc bb 71 34 3d 46 e0 81 bd 37 28 70 bd
       -0.020396074 0.044053774 -0.06341605 -0.058632102
000110 2d 70 a9 bc 60 cd aa bd c7 0d bf 3d fd 6b 88 bb
       -0.020683372 -0.083399534 0.093288 -0.004163264
000120 32 3b a0 bd f6 85 dc 3c dc bf 40 3d 77 24 84 3b
       -0.078237906 0.026919346 0.04705797 0.0040326673
000130 d2 30 b6 bc 98 be 59 3d 57 76 2c bd 0c 33 2d 3d
       -0.022240076 0.05316028 -0.042105045 0.04228501
000140 fd 0b ae 3c 26 39 79 3d ea 4f 43 3d 0b 97 3f 3d
       0.02124595 0.060845517 0.047683634 0.046774905
000150 1b 6b 9f bc 25 02 98 3d 5b 33 ae bd 7d e2 cd bc
       -0.019460252 0.07422284 -0.08505889 -0.025132412
000160 3b 5c 3f bc a6 06 94 3d 9f e6 87 bd 98 54 a8 bd
       -0.011679704 0.072278306 -0.06635784 -0.0821926
000170 ab df 23 bc 9a dd b6 3d 1d 97 d9 3c 8f 40 a4 bd
       -0.010002057 0.08928986 0.026561314 -0.08020126
000180 8b b8 ab 3d 41 b1 ad 3d a7 4c c9 3b ec c4 bf 3c
       0.08384808 0.08481074 0.006143171 0.02340933
000190 73 13 14 3d de ce 76 bd 0a a3 64 3c 40 7e 2b bd
       0.03615136 -0.060255878 0.013954887 -0.04186845
0001a0 81 56 cb bd 54 02 50 bd 64 25 9d bd 87 55 e7 3c
       -0.09928609 -0.05078347 -0.07673147 0.028239025
0001b0 5d 23 35 3d b7 cf b4 3c 12 ac a0 3d 3d dd 20 3d
       0.04422318 0.022071702 0.0784532 0.03927349
0001c0 89 c1 9f 3d 6c 7a 3f bd 41 aa ce bc 68 e8 56 3d
       0.07800586 -0.04674761 -0.025227668 0.052467734
0001d0 7f 81 20 bc 0a 6d 75 3c a1 0a b9 bd 77 d2 03 3d
       -0.009796499 0.01497961 -0.090352304 0.032183137
0001e0 4c 60 e8 bb ae f9 b6 3b 1d 7b 69 bc b7 5f d7 bc
       -0.0070915576 0.0055839634 -0.014250544 -0.026290758
0001f0 5f 69 9c 3c 89 5f 51 bd 81 91 b4 3d fa e6 95 bd
       0.019093214 -0.0511165 0.08816815 -0.07319446
000200 07 0c 13 bd 72 b8 89 3b e2 84 a9 bd f3 c9 a3 bd
       -0.035900142 0.004202896 -0.082772985 -0.07997503
000210 19 8b 6a bd fb 59 81 3d 60 04 51 bd 60 01 3a bc
       -0.05726156 0.063159905 -0.051029563 -0.011352867
000220 53 a9 35 3d 52 38 d3 3b 10 15 3a 3c b7 8a 89 bd
       0.044350933 0.006445923 0.011357561 -0.06715911
000230 fd e3 b1 3d 5e e3 2c 3d 7c 40 1a 3d 33 fd 94 bd
       0.086860634 0.04220902 0.037659153 -0.072748564
000240 8e c5 38 bd 6d 68 df 3b 1f 46 99 3d c3 6b f1 bc
       -0.045110278 0.0068178684 0.07484078 -0.02947033
000250 81 ee ab 3d 1c fc 56 3d f2 cd ec bc ac e5 14 bd
       0.083951004 0.052486524 -0.028906796 -0.036351845
000260 cd e2 85 bd d0 b0 5f 3c 9d ae 82 3d 5a 81 dd bc
       -0.065373994 0.013652995 0.06380961 -0.027039219
000270 26 16 af 3c 14 e7 a9 bd 28 a2 33 bd 34 65 a0 bd
       0.021372866 -0.08296028 -0.043855816 -0.07831803
000280 39 3e 99 bd 0b 11 56 bc 34 92 76 3d 87 ed 91 bd
       -0.07482571 -0.013065587 0.060198024 -0.07125383
000290 b7 d6 04 bd 5c c1 53 3d 24 94 29 bd 59 7a b4 3d
       -0.03243133 0.051698074 -0.041401044 0.088123985
0002a0 9e b5 67 bd 9f 32 b8 bd 3f c0 41 3d 57 99 3d 3d
       -0.056569688 -0.0899403 0.04730248 0.046288814
0002b0 6c b7 c4 bc 43 a6 66 bd e9 3f 54 3d 52 f5 0c 3c
       -0.024013244 -0.056310903 0.051818762 0.008603411
0002c0 fe ba 5f bd 02 b2 1c 3c c0 8b 52 3b e3 23 26 bd
       -0.05462169 0.009563925 0.0032126755 -0.040561568
0002d0 96 94 2e 3d d0 48 4c bd 04 d8 b4 3c fd 66 7f bd
       0.04262217 -0.049874127 0.02207566 -0.062354077
0002e0 46 73 b7 3d 93 bc 46 bd 27 a9 74 3b 30 13 67 3c
       0.089575335 -0.048519682 0.0037332268 0.014103696
0002f0 6d b2 fe bc 8d 99 9b bd 4a 16 8a 3d de 4d 2d bd
       -0.03109094 -0.07597647 0.067425326 -0.042310588
000300 cd 50 71 bd 76 72 ad bd 8c fc f9 bc 96 79 7e bd
       -0.05891495 -0.08469097 -0.030515932 -0.062127672
000310 58 10 92 3d 66 6b ba bd 65 76 88 3d 8c d4 28 bd
       0.071320236 -0.09102516 0.06663207 -0.041218325
000320 8d 34 6b bd af cb f1 3c 0c fd 6a bd a7 f8 92 bd
       -0.057423163 0.02951607 -0.05737023 -0.07176333
000330 f3 da 24 bd 00 72 2b bd 7d e3 01 bd d2 0a b0 bd
       -0.04024787 -0.041856766 -0.03171109 -0.08595814
000340 55 09 a3 bd 6d b6 99 3c b3 a3 98 3d 01 21 96 3c
       -0.07960764 0.018763745 0.07453098 0.018326284
000350 c9 16 a7 bd 17 7b 36 bd 7d e8 b7 bd 0b 0c 15 3d
       -0.08158643 -0.04455098 -0.089798905 0.03638844
000360 b3 56 b2 bd c3 34 66 bd ad 7c 93 3d b6 4c 24 bd
       -0.08707943 -0.05620266 0.072015144 -0.04011222
000370 b7 92 5e bd f3 d2 2e bb df d9 e9 bc eb 8a 97 3c
       -0.054339137 -0.0026676029 -0.028546272 0.018498858
000380 e2 a6 b1 3b 85 e2 4d bd 20 63 a3 bd 7a a9 5c bb
       0.0054215053 -0.050264854 -0.07977891 -0.0033670352
000390 fd d7 b2 bd f7 ad 0f bd d4 32 b2 3d de 3d a2 3d
       -0.08732603 -0.035078015 0.08701101 0.079219565
0003a0 17 ad 3f 3d 45 68 e8 bc 6b 3b 94 b7 a6 50 83 bd
       0.04679593 -0.028370032 -1.7670644e-05 -0.06411867
0003b0 48 fd a6 3c eb 86 8c bd e5 1c 34 3d 60 3c 21 bb
       0.020384446 -0.06861671 0.04397287 -0.0024602637
0003c0 80 83 b5 bb 34 cc 88 bc ea f7 9e bd cb c4 7a bd
       -0.0055393577 -0.016698934 -0.077621296 -0.061222833
0003d0 cc 9e 92 bd a3 e6 60 3d 4f f5 77 bd b4 e7 4c 3d
       -0.07159194 0.054907452 -0.06053668 0.050025657
0003e0 a9 d4 96 bd b9 8a b0 3c 8d 19 f8 bc ba af 12 3e
       -0.073647805 0.021550523 -0.030285621 0.14324847
0003f0 d0 d1 88 3d 29 f3 db 3c 94 c8 03 3e cc 4d 88 3d
       0.066806436 0.026849346 0.12869483 0.066554636

fc2.bias f4 [84]
000000 ae 5a 2c 3d b4 fd 5c 3c a5 76 83 bd a7 41 24 bd
       0.042078666 0.013488222 -0.06419114 -0.040101673
000010 06 ae 99 bd 07 c8 cc bc 0b fe e2 bc b6 35 0f 3d
       -0.075038955 -0.024997724 -0.027709028 0.034963332
000020 8d 5c 8f 3d 87 7f 71 bd d8 5a 0f bd c4 2e 80 3d
       0.070000745 -0.05895951 -0.034998745 0.0625892
000030 0f 1e 8e 3c 1a 55 b5 3d 06 0e 66 3d 66 c5 ee 3c
       0.017348317 0.088541225 0.056165718 0.029146861
000040 2d 12 aa bd 7d ba ac 3d ed 70 2c 3d 41 41 6b bd
       -0.08304248 0.08434007 0.042099882 -0.057435278
000050 3b f0 0f bd 9d fe 92 bc 70 2f 5a bd f2 a2 7e bd
       -0.03514121 -0.017943675 -0.053267896 -0.062167116
000060 2e 7d ba 3d e5 00 c4 3d db 75 26 bd 99 58 ab 3d
       0.091059074 0.09570483 -0.04063974 0.08366508
000070 69 93 9a 3d 05 d7 47 bd b7 71 31 bd 33 f8 ba bb
       0.075476475 -0.048789043 -0.043321338 -0.005705857
000080 40 b7 2c 3d ca 8d 16 bd a4 67 ce 3c d6 f7 05 bd
       0.04216695 -0.036756314 0.025195904 -0.032707058
000090 e7 a0 c8 3a 09 cc 2e 3c 89 cb 90 bc e3 24 62 bd
       0.0015306742 0.010668763 -0.017675178 -0.05521096
0000a0 5c 9f c8 3c 17 5f 38 3c 9a 76 fc 3c 8d 97 c1 3c
       0.024490051 0.01125314 0.030818272 0.023631835
0000b0 6a ec 9e 3d 3a a7 0c bc ba 24 b5 3c ad 92 4e bd
       0.07759936 -0.008584792 0.02211224 -0.05043285
0000c0 5e 9f 01 bd ea 83 75 3d 26 3e cb bc 06 b4 a7 bd
       -0.031646125 0.059940256 -0.024809908 -0.081886336
0000d0 44 27 f6 3c f3 e2 b5 bb 41 25 a4 3b 5f 0c 4f 3d
       0.03004802 -0.005550736 0.005009324 0.050548907
0000e0 b6 cf b6 bc 8e e8 15 bc 6e 1d 57 bd bc 54 ac 3d
       -0.022315841 -0.009149684 -0.0525183 0.08414599
0000f0 1f ca 02 bd ed b0 b0 bd a1 41 8d bd 14 fe fd bc
       -0.03193104 -0.08627496 -0.06897283 -0.031004943
000100 84 51 59 bc bf 1b a9 bd b1 07 e5 3b bd 7c ea bb
       -0.013264064 -0.08257245 0.0069894423 -0.0071559832
000110 0e b9 96 3d 34 da d3 bb da 7b 92 bc 79 cd 88 bb
       0.07359515 -0.006465221 -0.017881323 -0.004174885
000120 ef c0 ad bd 31 d6 75 bc 3e bc 9d 3d e0 c9 c0 b9
       -0.08484065 -0.0150046805 0.0770192 -0.00036771502
000130 a1 d6 96 3d 77 39 47 bd 6e d4 7c bd bc 42 ad bc
       0.07365156 -0.048638787 -0.061726026 -0.021149985
000140 f2 fd 65 3d 41 39 de 3d 08 e3 61 bc a7 8a 9a 3d
       0.056150384 0.10850764 -0.013787039 0.07545977

fc3.weight f4 [10, 84]
000000 42 6f cf bc 68 92 93 bd 69 e5 80 3c 97 e0 b4 3d
       -0.025321607 -0.07205659 0.015734391 0.088318996
000010 2a e8 ad 3d 73 c9 30 bd f7 d8 3a bd cf 60 76 bc
       0.084915474 -0.043160867 -0.04561707 -0.015037729
000020 d5 c4 a2 bb b4 20 5f 3e cf 54 d3 bd 6b 7c 0f 3d
       -0.004967312 0.21789819 -0.1031891 0.035030764
000030 17 da 23 3c 37 0d 9a bd c9 df a8 3c 64 20 d5 ba
       0.010000727 -0.07522052 0.020614522 -0.0016260264
000040 ea 33 1d bc ef cc 87 3c 90 b5 b7 bd 90 62 d6 bd
       -0.009594897 0.016577212 -0.08970177 -0.10468018
000050 c3 07 2b 3e cb fa 84 3d 43 12 a6 3d 86 ed a9 3d
       0.1670218 0.064931475 0.08108952 0.08297257
000060 bd fb fd bd 94 ea d4 bd 53 ec 63 3c 86 4d 4a bd
       -0.12401531 -0.10396305 0.013911325 -0.04939034
000070 1c bc 13 be ee 2f 08 be d1 46 92 bc 63 10 7a bd
       -0.14427227 -0.13299534 -0.017856034 -0.061050784
000080 e2 8e 82 bd a4 51 6e 3d 1c f6 5c be fd 5f d3 bc
       -0.06374909 0.058183327 -0.21578258 -0.025802607
000090 30 d1 a3 3d d5 ec 92 3c c7 64 14 3d 10 45 3a 3d
       0.07998884 0.017935196 0.03622892 0.04547602
0000a0 c1 43 98 bd 54 61 94 3d c4 aa ba bd 73 36 41 bd
       -0.07434798 0.07245126 -0.09114602 -0.047171067
0000b0 fa 9c 41 bc 58 12 5b bd aa 52 c8 3d 3c 03 c0 bd
       -0.011817211 -0.05348429 0.09781392 -0.09375617
0000c0 56 7c bb bd 23 ef 17 3e 60 fc 50 ba e1 31 51 bd
       -0.091545746 0.14837317 -0.0007972177 -0.05107296
0000d0 04 1f 98 ba 81 7e d1 bc d9 71 0d be b5 a8 b6 bc
       -0.0011605923 -0.025573017 -0.1381296 -0.022297243
0000e0 c9 f6 1e be 65 c3 dd 3a f5 28 aa 3d 49 c6 b1 3c
       -0.15523829 0.0016919194 0.08308593 0.021700995
0000f0 9d 5b 07 3e d4 7f bb bd c8 3e f7 3b 36 21 3a 3d
       0.13218541 -0.09155241 0.007545326 0.04544183
000100 b1 6a 02 3d 76 62 04 3d d3 df 3d bd 92 09 a4 3d
       0.03184003 0.032320462 -0.046356034 0.08009638
000110 c5 40 ce 3c 1d f6 8f 3d 57 43 c2 3d b8 9a 37 3d
       0.025177369 0.07029364 0.094855 0.044825286
000120 1f da 18 bd 3c 09 35 bd 90 81 17 3d 39 10 32 3e
       -0.03731739 -0.04419826 0.036988795 0.17389001
000130 57 00 24 3e fd 03 63 3d 4b e6 05 3e 29 10 9c 3d
       0.16015755 0.055423725 0.13076131 0.0762027
000140 a0 a2 5c bd af dc 56 be 02 b0 af 3d 8a c0 8c 3d
       -0.05386603 -0.20982622 0.08578493 0.068726614
000150 49 c5 8b bd fa fb 8a bd bf 71 01 3d 00 d1 10 bd
       -0.068247385 -0.06786342 0.031602617 -0.035355568
000160 18 09 88 bd 21 16 da 3d 97 d7 f1 3d 7b 63 38 be
       -0.066423595 0.10648752 0.118086986 -0.18006699
000170 72 f2 c0 3d c2 fc 1c bd 09 bf a1 3d 98 26 b1 bd
       0.09421243 -0.038326986 0.07897765 -0.08649939
000180 11 14 cd 3d 09 03 2e 3e 59 7c 01 3e 64 52 0e 3e
       0.10013593 0.16993345 0.12645091 0.13898617
000190 50 9f e8 3d de cc ef 3d 6c 98 85 3d 97 41 d0 3d
       0.113585114 0.11708997 0.06523213 0.1016876
0001a0 87 04 42 3e c3 e5 8a 3d 34 71 48 ba 72 7c 94 3d
       0.1894704 0.06782105 -0.0007646263 0.072502986
0001b0 e2 88 34 3e dc ae a0 3d af e0 c5 3d ab d7 ed 3d
       0.17630342 0.07845852 0.096619956 0.11613401
0001c0 61 d4 06 3e f7 29 4e 37 b7 c9 b1 3d a5 f8 a3 bd
       0.13166954 1.22883275e-05 0.08681052 -0.080064096
0001d0 b9 4a 09 be e9 2d 93 bd 9c 90 da bc c4 67 1d bc
       -0.1340741 -0.07186491 -0.026680283 -0.009607259
0001e0 86 21 01 3d 62 7b d3 bd dd 7b b1 3c 11 10 a9 3a
       0.03152611 -0.10326268 0.021665508 0.0012898465
0001f0 96 44 53 3d 0c ff 94 3c 34 b8 5f 3d f2 06 e9 3c
       0.05157908 0.018188022 0.05461903 0.028445695
000200 b5 b4 03 bd e9 61 8b 3d c9 06 0a be 0d 54 6b 3d
       -0.032154758 0.06805784 -0.13479151 0.057453204
000210 c8 26 b1 bd c9 6c ef bd 06 10 9b bd 1d eb a5 3d
       -0.08649975 -0.11690671 -0.075714156 0.08101485
000220 e6 7d 24 be 34 53 b0 3d 09 b2 0b 3e 16 5e 00 bd
       -0.16063651 0.0860962 0.13642134 -0.031339727
000230 6b 1c 2f be 68 54 5e bc 98 72 7d 3d f4 06 2b 3e
       -0.17100684 -0.013569929 0.061876863 0.16701871
000240 2d 2e 77 bd ca 9f 95 bd 29 db e1 bd dd 16 a9 bd
       -0.06034677 -0.07305868 -0.110281296 -0.08256314
000250 2b d4 95 bc 1b 2a bf 3d 72 4c 9f 3d 7a 35 8e bd
       -0.018289646 0.09334203 0.07778253 -0.069437936
000260 60 69 65 be 4f 8b 70 bd 36 b3 a2 bd a3 87 16 3e
       -0.22403479 -0.058726605 -0.07944338 0.14700179
000270 8d 32 43 bb 2d e0 a4 bd 5d f3 a7 bc f1 04 3b bd
       -0.002978477 -0.08050571 -0.020501787 -0.04565901
000280 c2 6a f2 3d 6c c9 a0 bd c2 65 59 be f5 55 91 3d
       0.11836769 -0.07850918 -0.21230224 0.07096473
000290 af 19 2b be e3 b5 39 3e 4c 37 be 3c 4a fb 0a bd
       -0.16709016 0.1813579 0.023219727 -0.033931054
0002a0 63 36 d0 bd 8a 5c 95 3d 0b af 78 bd d0 54 91 3d
       -0.101666234 0.07293041 -0.06071381 0.07096255
0002b0 63 91 98 3d a1 db 60 3d 92 50 51 bd 10 90 9e 3d
       0.07449605 0.054896954 -0.05110223 0.077423215
0002c0 98 4e 51 3e 59 a3 2c bd 20 26 1d 3d bf 00 d6 bd
       0.20440137 -0.042147968 0.038366437 -0.10449361
0002d0 c1 2e 3e 3d d9 8a ed 3d c9 c7 15 be f7 60 01 be
       0.046431307 0.11598749 -0.14626993 -0.12634645
0002e0 2d 91 1c 3e 2d d5 35 be ba b5 c2 bd de ab 33 3d
       0.15289755 -0.17757101 -0.09507318 0.043865077
0002f0 b7 b5 d1 3d 12 c4 8a 3c 23 80 08 3d 73 6f eb 3d
       0.102397375 0.016939197 0.033325326 0.114958666
000300 72 bb 57 3d 92 9e 5a bd 93 cb 5f bd d3 72 5f 3e
       0.052668996 -0.05337388 -0.054637503 0.21821146
000310 da a1 6d 3d e1 3e e3 3b 90 94 1c bc 19 27 17 3d
       0.05801568 0.006934986 -0.009556904 0.03690252
000320 6b c1 e4 bd f3 a4 69 bd ad 63 9b bd 63 0b a6 bd
       -0.11169704 -0.057042073 -0.07587371 -0.081076406
000330 3d 76 f9 bc f7 ae 87 bd 8d 93 9f bd b6 23 9c bd
       -0.030451888 -0.06625169 -0.07791815 -0.07623999
000340 70 a3 83 3d 79 ac 3c 3e 3e d0 76 3d af 5e 8b bd
       0.064276576 0.18425168 0.06025719 -0.06805169
000350 ad 19 b3 bc 11 73 12 3d f3 8c 28 3e b2 f1 7a bc
       -0.02186283 0.035754267 0.16460018 -0.015316414
000360 04 43 00 3e fe 29 02 3e 92 c8 1f be 1e 06 a2 bd
       0.12525564 0.12711331 -0.15603855 -0.07911323
000370 bb ab ff bd 85 38 6b bd a3 dd 6f bd 76 e1 01 3e
       -0.12483927 -0.057426948 -0.05856098 0.12683663
000380 18 7a 80 bd cd 96 1e 3e a0 8b ba 3b 30 5d 25 3e
       -0.062732875 0.15487213 0.005692914 0.1614883
000390 68 d2 2c be bb 78 bf 3d e1 60 09 3d 61 08 1b be
       -0.16877139 0.093491994 0.033539657 -0.15139915
0003a0 b4 c4 c5 3c 30 2f dc bd dc de 2f 3e 73 eb 38 bd
       0.024141647 -0.10751188 0.17174858 -0.045146417
0003b0 88 be 36 3e c1 13 3b 3d 61 86 19 3e 86 6c 10 bd
       0.1784612 0.045673136 0.14992668 -0.035259746
0003c0 d8 46 0f be 1f 18 ca bc 2b 8c 3e be db f5 58 3d
       -0.13991868 -0.024669705 -0.18608157 0.05296884
0003d0 4c aa f8 bc c0 4e 3e 3d d1 e0 e4 3b 20 f8 04 bd
       -0.030354641 0.04646182 0.006984808 -0.032463193
0003e0 9c c6 ad 3d dd 11 4c 3d c4 ac 3e bd 7b 87 99 3d
       0.08485147 0.049821723 -0.04655148 0.07496544
0003f0 cc e6 e4 3d 94 98 3b ba ef c8 24 3e 28 b5 72 3d
       0.111768335 -0.000715622 0.16092275 0.059254795

fc3.bias f4 [10]
000000 87 0e 86 bd aa b4 b7 3c 35 4f 1c bd 77 5b 96 bc
       -0.065457396 0.022425015 -0.038161475 -0.01835416
000010 a5 ea 70 bd 45 c8 ce 3d 5c 7e 86 bd cc 32 5d 3d
       -0.058817524 0.10096792 -0.0656707 0.05400352
000020 be 14 8e 3c 1b 29 9d bd
       0.017343875 -0.07673856
